…
pe of warning will be suppressed for the rest of this program. (Triggered internally at /pytorch/torch/csrc/utils/tensor_numpy.cpp:203.)
  new_data[k] = torch.LongTensor(value)
11 Feb 10:29    INFO  [Training]: train_batch_size = [128] train_neg_sample_args: [{'distribution': 'none', 'sample_num': 'none', 'alpha': 'none', 'dynamic': False, 'candidate_num': 0}]
11 Feb 10:29    INFO  [Evaluation]: eval_batch_size = [4096] eval_args: [{'split': {'LS': 'valid_and_test'}, 'order': 'TO', 'group_by': 'user', 'mode': {'valid': 'full', 'test': 'full'}}]
11 Feb 10:29    INFO  pswrecv3(
  (item_embedding): Embedding(12102, 64, padding_idx=0)
  (position_embedding): Embedding(50, 64)
  (phase_filter): LocalPhaseFilterBankV3(
    (real_convs): ModuleList(
      (0): Conv1d(64, 64, kernel_size=(2,), stride=(1,), groups=64, bias=False)
      (1): Conv1d(64, 64, kernel_size=(4,), stride=(1,), groups=64, bias=False)
      (2): Conv1d(64, 64, kernel_size=(8,), stride=(1,), dilation=(2,), groups=64, bias=False)
      (3): Conv1d(64, 64, kernel_size=(16,), stride=(1,), dilation=(2,), groups=64, bias=False)
    )
    (imag_convs): ModuleList(
      (0): Conv1d(64, 64, kernel_size=(2,), stride=(1,), groups=64, bias=False)
      (1): Conv1d(64, 64, kernel_size=(4,), stride=(1,), groups=64, bias=False)
      (2): Conv1d(64, 64, kernel_size=(8,), stride=(1,), dilation=(2,), groups=64, bias=False)
      (3): Conv1d(64, 64, kernel_size=(16,), stride=(1,), dilation=(2,), groups=64, bias=False)
    )
  )
  (encoder): PSWEncoderV3(
    (layers): ModuleList(
      (0-1): 2 x PSWBlockV3(
        (attn): PhaseSyncAttentionV3(
          (query): Linear(in_features=64, out_features=64, bias=True)
          (key): Linear(in_features=64, out_features=64, bias=True)
          (value): Linear(in_features=64, out_features=64, bias=True)
          (attn_dropout): Dropout(p=0.5, inplace=False)
          (out_proj): Linear(in_features=64, out_features=64, bias=True)
          (out_dropout): Dropout(p=0.5, inplace=False)
          (layer_norm): LayerNorm((64,), eps=1e-12, elementwise_affine=True)
        )
        (ffn): FeedForwardV3(
          (dense_1): Linear(in_features=64, out_features=256, bias=True)
          (dense_2): Linear(in_features=256, out_features=64, bias=True)
          (layer_norm): LayerNorm((64,), eps=1e-12, elementwise_affine=True)
          (dropout): Dropout(p=0.5, inplace=False)
        )
      )
    )
  )
  (layer_norm): LayerNorm((64,), eps=1e-12, elementwise_affine=True)
  (dropout): Dropout(p=0.5, inplace=False)
  (loss_fct): CrossEntropyLoss()
)
Trainable parameters: 881684
11 Feb 10:29    INFO  FLOPs: 5145664.0
/home/572/kd6504/TRACT/RecBole/recbole/trainer/trainer.py:235: FutureWarning: `torch.cuda.amp.GradScaler(args...)` is deprecated. Please use `torch.amp.GradScaler('cuda', args...)` instead.
  scaler = amp.GradScaler(enabled=self.enable_scaler)
…
