…
nge=0.02, n_bands=4, band_kernel_sizes=[3, 7, 15, 31], band_dilations=[1, 2, 4, 8], phase_bias_scale=0.1, phase_gate_scale=1.0, phase_aux=False, phase_aux_weight=0.0, phase_bias_init=-5.0, mag_tau=0.5, mag_temp=0.5, mag_gate_mode='mean', inner_size=256, sync_threshold=-0.7, cuda_condition=True, data_file='/home/572/kd6504/TRACT/WEARec/src/data/LastFM.txt', item_size=3647, checkpoint_path='experiment/wearec-pswrec/tuning_qia_lastfm/output/qia_lastfm.pt', same_target_path='/home/572/kd6504/TRACT/WEARec/src/data/LastFM_same_target.npy')
2026-02-16 08:32:00,417 - QIARecWOFModel(
  (item_embeddings): Embedding(3647, 64, padding_idx=0)
  (position_embeddings): Embedding(50, 64)
  (LayerNorm): LayerNorm((64,), eps=1e-12, elementwise_affine=True)
  (dropout): Dropout(p=0.5, inplace=False)
  (state_preparator): QuantumStatePreparator(
    (real_convs): ModuleList(
      (0): Conv1d(64, 64, kernel_size=(3,), stride=(1,), groups=64, bias=False)
      (1): Conv1d(64, 64, kernel_size=(7,), stride=(1,), dilation=(2,), groups=64, bias=False)
      (2): Conv1d(64, 64, kernel_size=(15,), stride=(1,), dilation=(4,), groups=64, bias=False)
      (3): Conv1d(64, 64, kernel_size=(31,), stride=(1,), dilation=(8,), groups=64, bias=False)
    )
    (imag_convs): ModuleList(
      (0): Conv1d(64, 64, kernel_size=(3,), stride=(1,), groups=64, bias=False)
      (1): Conv1d(64, 64, kernel_size=(7,), stride=(1,), dilation=(2,), groups=64, bias=False)
      (2): Conv1d(64, 64, kernel_size=(15,), stride=(1,), dilation=(4,), groups=64, bias=False)
      (3): Conv1d(64, 64, kernel_size=(31,), stride=(1,), dilation=(8,), groups=64, bias=False)
    )
  )
  (layers): ModuleList(
    (0-1): 2 x QIABlock(
      (attn): InterferenceAttention(
        (q_proj): ComplexLinear(
          (fc_r): Linear(in_features=64, out_features=64, bias=True)
          (fc_i): Linear(in_features=64, out_features=64, bias=True)
        )
        (k_proj): ComplexLinear(
          (fc_r): Linear(in_features=64, out_features=64, bias=True)
          (fc_i): Linear(in_features=64, out_features=64, bias=True)
        )
        (v_proj): ComplexLinear(
          (fc_r): Linear(in_features=64, out_features=64, bias=True)
          (fc_i): Linear(in_features=64, out_features=64, bias=True)
        )
        (out_proj): ComplexLinear(
          (fc_r): Linear(in_features=64, out_features=64, bias=True)
          (fc_i): Linear(in_features=64, out_features=64, bias=True)
        )
        (attn_dropout): Dropout(p=0.5, inplace=False)
        (out_dropout): Dropout(p=0.5, inplace=False)
      )
      (ffn): ComplexFFN(
        (fc1): ComplexLinear(
          (fc_r): Linear(in_features=64, out_features=256, bias=True)
          (fc_i): Linear(in_features=64, out_features=256, bias=True)
        )
        (fc2): ComplexLinear(
          (fc_r): Linear(in_features=256, out_features=64, bias=True)
          (fc_i): Linear(in_features=256, out_features=64, bias=True)
        )
        (dropout): Dropout(p=0.5, inplace=False)
      )
      (ln1): ComplexLayerNorm(
        (ln_r): LayerNorm((64,), eps=1e-12, elementwise_affine=True)
        (ln_i): LayerNorm((64,), eps=1e-12, elementwise_affine=True)
      )
      (ln2): ComplexLayerNorm(
        (ln_r): LayerNorm((64,), eps=1e-12, elementwise_affine=True)
        (ln_i): LayerNorm((64,), eps=1e-12, elementwise_affine=True)
      )
    )
  )
  (collapse_proj): Linear(in_features=64, out_features=64, bias=True)
)
2026-02-16 08:32:02,159 - Total Parameters: 448000
Mode_train:0:   0%|| 0/101 [00:00<?, ?it/s]Mode_train:0:   1%|| 1/101 [00:00<00:40,  2.45it/s]Mode_train:0:   5%|| 5/101 [00:00<00:07, 12.03it/s]Mode_train:0:   9%|| 9/101 [00:00<00:04, 19.47it/s]Mode_train:0:  13%|| 13/101 [00:00<00:03, 25.04it/s]Mode_train:0:  18%|| 18/101 [00:00<00:02, 30.01it
…
