…
, band_kernel_sizes=[3, 7, 15, 31], band_dilations=[1, 2, 4, 8], phase_bias_scale=0.1, phase_gate_scale=1.0, phase_aux=False, phase_aux_weight=0.0, phase_bias_init=-5.0, mag_tau=0.5, mag_temp=0.5, mag_gate_mode='mean', inner_size=256, sync_threshold=-0.7, cuda_condition=True, data_file='/home/572/kd6504/TRACT/WEARec/src/data/LastFM.txt', item_size=3647, checkpoint_path='experiment/wearec-pswrec/tuning_v1111_lastfm/output/v1111_lastfm.pt', same_target_path='/home/572/kd6504/TRACT/WEARec/src/data/LastFM_same_target.npy')
2026-02-16 08:26:34,380 - ResidualDynamicPSWRecWOFModel(
  (item_embeddings): Embedding(3647, 64, padding_idx=0)
  (position_embeddings): Embedding(50, 64)
  (LayerNorm): LayerNorm((64,), eps=1e-12, elementwise_affine=True)
  (dropout): Dropout(p=0.5, inplace=False)
  (phase_filter): LocalPhaseFilterBankV13NoRot(
    (real_convs): ModuleList(
      (0): Conv1d(64, 64, kernel_size=(3,), stride=(1,), groups=64, bias=False)
      (1): Conv1d(64, 64, kernel_size=(7,), stride=(1,), dilation=(2,), groups=64, bias=False)
      (2): Conv1d(64, 64, kernel_size=(15,), stride=(1,), dilation=(4,), groups=64, bias=False)
      (3): Conv1d(64, 64, kernel_size=(31,), stride=(1,), dilation=(8,), groups=64, bias=False)
    )
    (imag_convs): ModuleList(
      (0): Conv1d(64, 64, kernel_size=(3,), stride=(1,), groups=64, bias=False)
      (1): Conv1d(64, 64, kernel_size=(7,), stride=(1,), dilation=(2,), groups=64, bias=False)
      (2): Conv1d(64, 64, kernel_size=(15,), stride=(1,), dilation=(4,), groups=64, bias=False)
      (3): Conv1d(64, 64, kernel_size=(31,), stride=(1,), dilation=(8,), groups=64, bias=False)
    )
  )
  (encoder): ResidualDynamicPSWEncoder(
    (layers): ModuleList(
      (0-1): 2 x ResidualDynamicPSWBlock(
        (attn): ResidualDynamicAMPhaseAttention(
          (query): Linear(in_features=64, out_features=64, bias=True)
          (key): Linear(in_features=64, out_features=64, bias=True)
          (value): Linear(in_features=64, out_features=64, bias=True)
          (attn_dropout): Dropout(p=0.5, inplace=False)
          (out_proj): Linear(in_features=64, out_features=64, bias=True)
          (out_dropout): Dropout(p=0.5, inplace=False)
          (layer_norm): LayerNorm((64,), eps=1e-12, elementwise_affine=True)
          (context_mlp): Sequential(
            (0): Linear(in_features=64, out_features=32, bias=True)
            (1): GELU(approximate='none')
            (2): Linear(in_features=32, out_features=32, bias=True)
          )
        )
        (ffn): FeedForwardV13NoRot(
          (dense_1): Linear(in_features=64, out_features=256, bias=True)
          (dense_2): Linear(in_features=256, out_features=64, bias=True)
          (layer_norm): LayerNorm((64,), eps=1e-12, elementwise_affine=True)
          (dropout): Dropout(p=0.5, inplace=False)
        )
      )
    )
  )
)
2026-02-16 08:26:36,131 - Total Parameters: 350224
Mode_train:0:   0%|| 0/101 [00:00<?, ?it/s]Mode_train:0:   1%|| 1/101 [00:00<00:47,  2.09it/s]Mode_train:0:   5%|| 5/101 [00:00<00:09, 10.42it/s]Mode_train:0:   9%|| 9/101 [00:00<00:05, 16.71it/s]Mode_train:0:  13%|| 13/
…
