…
probs_dropout_prob=0.2, hidden_dropout_prob=0.1, initializer_range=0.02, n_bands=3, band_kernel_sizes=[3, 5, 7], band_dilations=[1, 2, 4], phase_bias_scale=0.1, phase_gate_scale=1.0, phase_aux=True, phase_aux_weight=0.05, inner_size=256, sync_threshold=-0.7, cuda_condition=True, data_file='/home/572/kd6504/TRACT/WEARec/src/data/LastFM.txt', item_size=3647, checkpoint_path='experiment/wearec-pswrec/tuning_v13_lastfm/output/v15lastfm_tight_paw0p05.pt', same_target_path='/home/572/kd6504/TRACT/WEARec/src/data/LastFM_same_target.npy')
2026-02-15 17:09:46,818 - PSWRecV13WOFModel(
  (item_embeddings): Embedding(3647, 66, padding_idx=0)
  (position_embeddings): Embedding(50, 66)
  (LayerNorm): LayerNorm((66,), eps=1e-12, elementwise_affine=True)
  (dropout): Dropout(p=0.1, inplace=False)
  (phase_filter): LocalPhaseFilterBankV13(
    (real_convs): ModuleList(
      (0): Conv1d(66, 66, kernel_size=(3,), stride=(1,), groups=66, bias=False)
      (1): Conv1d(66, 66, kernel_size=(5,), stride=(1,), dilation=(2,), groups=66, bias=False)
      (2): Conv1d(66, 66, kernel_size=(7,), stride=(1,), dilation=(4,), groups=66, bias=False)
    )
    (imag_convs): ModuleList(
      (0): Conv1d(66, 66, kernel_size=(3,), stride=(1,), groups=66, bias=False)
      (1): Conv1d(66, 66, kernel_size=(5,), stride=(1,), dilation=(2,), groups=66, bias=False)
      (2): Conv1d(66, 66, kernel_size=(7,), stride=(1,), dilation=(4,), groups=66, bias=False)
    )
  )
  (encoder): PSWEncoderV13(
    (layers): ModuleList(
      (0-1): 2 x PSWBlockV13(
        (attn): AMBehavioralRotaryAttentionV13(
          (query): Linear(in_features=66, out_features=66, bias=True)
          (key): Linear(in_features=66, out_features=66, bias=True)
          (value): Linear(in_features=66, out_features=66, bias=True)
          (attn_dropout): Dropout(p=0.2, inplace=False)
          (out_proj): Linear(in_features=66, out_features=66, bias=True)
          (out_dropout): Dropout(p=0.1, inplace=False)
          (layer_norm): LayerNorm((66,), eps=1e-12, elementwise_affine=True)
        )
        (ffn): FeedForwardV13(
          (dense_1): Linear(in_features=66, out_features=256, bias=True)
          (dense_2): Linear(in_features=256, out_features=66, bias=True)
          (layer_norm): LayerNorm((66,), eps=1e-12, elementwise_affine=True)
          (dropout): Dropout(p=0.1, inplace=False)
        )
      )
    )
  )
)
2026-02-15 17:09:48,357 - Total Parameters: 350252
Mode_train:0:   0%|| 0/101 [00:00<?, ?it/s]Mode_train:0:   1%|| 1/101 [00:00<00:53,  1.88it/s]Mode_train:0:   7%|| 7/101 [00:00<00:06, 13.64it/s]Mode_train:0:  12%|| 12/101 [00:00<00:04, 21.68it/s]Mode_train:0:  18%|| 18
…
