…
ut_prob=0.2, hidden_dropout_prob=0.1, initializer_range=0.02, n_bands=4, band_kernel_sizes=[3, 7, 15, 31], band_dilations=[1, 2, 4, 8], phase_bias_scale=0.1, phase_gate_scale=1.0, phase_aux=True, phase_aux_weight=0.05, inner_size=256, sync_threshold=-0.7, cuda_condition=True, data_file='/home/572/kd6504/TRACT/WEARec/src/data/LastFM.txt', item_size=3647, checkpoint_path='experiment/wearec-pswrec/tuning_v13_lastfm/output/v17lastfm_s3_in256_paw0p05.pt', same_target_path='/home/572/kd6504/TRACT/WEARec/src/data/LastFM_same_target.npy')
2026-02-15 17:37:41,165 - PSWRecV17WOFModel(
  (item_embeddings): Embedding(3647, 64, padding_idx=0)
  (position_embeddings): Embedding(50, 64)
  (LayerNorm): LayerNorm((64,), eps=1e-12, elementwise_affine=True)
  (dropout): Dropout(p=0.1, inplace=False)
  (phase_filter): LocalPhaseFilterBankV13(
    (real_convs): ModuleList(
      (0): Conv1d(64, 64, kernel_size=(3,), stride=(1,), groups=64, bias=False)
      (1): Conv1d(64, 64, kernel_size=(7,), stride=(1,), dilation=(2,), groups=64, bias=False)
      (2): Conv1d(64, 64, kernel_size=(15,), stride=(1,), dilation=(4,), groups=64, bias=False)
      (3): Conv1d(64, 64, kernel_size=(31,), stride=(1,), dilation=(8,), groups=64, bias=False)
    )
    (imag_convs): ModuleList(
      (0): Conv1d(64, 64, kernel_size=(3,), stride=(1,), groups=64, bias=False)
      (1): Conv1d(64, 64, kernel_size=(7,), stride=(1,), dilation=(2,), groups=64, bias=False)
      (2): Conv1d(64, 64, kernel_size=(15,), stride=(1,), dilation=(4,), groups=64, bias=False)
      (3): Conv1d(64, 64, kernel_size=(31,), stride=(1,), dilation=(8,), groups=64, bias=False)
    )
  )
  (encoder): PSWEncoderV17(
    (layers): ModuleList(
      (0-1): 2 x PSWBlockV17(
        (attn): AdditiveResonanceAttentionV17(
          (query): Linear(in_features=64, out_features=64, bias=True)
          (key): Linear(in_features=64, out_features=64, bias=True)
          (value): Linear(in_features=64, out_features=64, bias=True)
          (attn_dropout): Dropout(p=0.2, inplace=False)
          (out_proj): Linear(in_features=64, out_features=64, bias=True)
          (out_dropout): Dropout(p=0.1, inplace=False)
          (layer_norm): LayerNorm((64,), eps=1e-12, elementwise_affine=True)
        )
        (ffn): FeedForwardV13(
          (dense_1): Linear(in_features=64, out_features=256, bias=True)
          (dense_2): Linear(in_features=256, out_features=64, bias=True)
          (layer_norm): LayerNorm((64,), eps=1e-12, elementwise_affine=True)
          (dropout): Dropout(p=0.1, inplace=False)
        )
      )
    )
  )
)
2026-02-15 17:37:58,568 - Total Parameters: 343880
Mode_train:0:   0%|| 0/101 [00:00<?, ?it/s]Mode_train:0:   1%|| 1/101 [00:03<05:16,  3.16s/it]Mode_train:0:   4%|| 4/101 [00:03<01:00,  1.60it/s]Mode_train:0:  10%|| 10/101 [00:03<00:18,  4.95it/s]Mode_train:0:  16%|| 16
…
