…
elu', num_attention_heads=4, attention_probs_dropout_prob=0.5, hidden_dropout_prob=0.5, initializer_range=0.02, n_bands=4, band_kernel_sizes=[3, 7, 15, 31], band_dilations=[1, 2, 4, 8], phase_bias_scale=0.1, phase_gate_scale=1.0, phase_aux=True, phase_aux_weight=0.05, inner_size=256, sync_threshold=0.0, cuda_condition=True, data_file='/home/572/kd6504/TRACT/WEARec/src/data/LastFM.txt', item_size=3647, checkpoint_path='output/pswrecv12_wof_lastfm.pt', same_target_path='/home/572/kd6504/TRACT/WEARec/src/data/LastFM_same_target.npy')
2026-02-15 09:38:54,822 - PSWRecV12WOFModel(
  (item_embeddings): Embedding(3647, 64, padding_idx=0)
  (position_embeddings): Embedding(50, 64)
  (LayerNorm): LayerNorm((64,), eps=1e-12, elementwise_affine=True)
  (dropout): Dropout(p=0.5, inplace=False)
  (phase_filter): LocalPhaseFilterBankV5(
    (real_convs): ModuleList(
      (0): Conv1d(64, 64, kernel_size=(3,), stride=(1,), groups=64, bias=False)
      (1): Conv1d(64, 64, kernel_size=(7,), stride=(1,), dilation=(2,), groups=64, bias=False)
      (2): Conv1d(64, 64, kernel_size=(15,), stride=(1,), dilation=(4,), groups=64, bias=False)
      (3): Conv1d(64, 64, kernel_size=(31,), stride=(1,), dilation=(8,), groups=64, bias=False)
    )
    (imag_convs): ModuleList(
      (0): Conv1d(64, 64, kernel_size=(3,), stride=(1,), groups=64, bias=False)
      (1): Conv1d(64, 64, kernel_size=(7,), stride=(1,), dilation=(2,), groups=64, bias=False)
      (2): Conv1d(64, 64, kernel_size=(15,), stride=(1,), dilation=(4,), groups=64, bias=False)
      (3): Conv1d(64, 64, kernel_size=(31,), stride=(1,), dilation=(8,), groups=64, bias=False)
    )
    (tau_proj): Sequential(
      (0): Linear(in_features=8, out_features=8, bias=True)
      (1): ReLU()
      (2): Linear(in_features=8, out_features=4, bias=True)
      (3): Softplus(beta=1.0, threshold=20.0)
    )
  )
  (encoder): PSWEncoderV12(
    (layers): ModuleList(
      (0-1): 2 x PSWBlockV12(
        (attn): BehavioralRotaryAttentionV12(
          (query): Linear(in_features=64, out_features=64, bias=True)
          (key): Linear(in_features=64, out_features=64, bias=True)
          (value): Linear(in_features=64, out_features=64, bias=True)
          (attn_dropout): Dropout(p=0.5, inplace=False)
          (out_proj): Linear(in_features=64, out_features=64, bias=True)
          (out_dropout): Dropout(p=0.5, inplace=False)
          (layer_norm): LayerNorm((64,), eps=1e-12, elementwise_affine=True)
        )
        (ffn): FeedForwardV11(
          (dense_1): Linear(in_features=64, out_features=256, bias=True)
          (dense_2): Linear(in_features=256, out_features=64, bias=True)
          (layer_norm): LayerNorm((64,), eps=1e-12, elementwise_affine=True)
          (dropout): Dropout(p=0.5, inplace=False)
        )
      )
    )
  )
)
2026-02-15 09:39:12,099 - Total Parameters: 343980
Mode_train:0:   0%|| 0/101 [00:00<?, ?it/s]Mode_train:0:   1%|| 1/101 [00:02<04:20,  2.61s/it]Mode_train:0:   6%|| 6/101 [00:02<00:32,  2.96it/s]Mode_train:0:  12%|| 12/101 [00:02<00:13,  6.82it/s]Mode_train:0:  18%|| 18
…
