…
modes_k=26, index_k=[0, 1, 2, 3, 4, 5, 6, 7, 8, 9, 10, 11, 12, 13, 14, 15, 16, 17, 18, 19, 20, 21, 22, 23, 24, 25]
modes_v=26, index_v=[0, 1, 2, 3, 4, 5, 6, 7, 8, 9, 10, 11, 12, 13, 14, 15, 16, 17, 18, 19, 20, 21, 22, 23, 24, 25]
1>0.5:True
modes_q=26, index_q=[0, 1, 2, 3, 4, 5, 6, 7, 8, 9, 10, 11, 12, 13, 14, 15, 16, 17, 18, 19, 20, 21, 22, 23, 24, 25]
modes_k=26, index_k=[0, 1, 2, 3, 4, 5, 6, 7, 8, 9, 10, 11, 12, 13, 14, 15, 16, 17, 18, 19, 20, 21, 22, 23, 24, 25]
modes_v=26, index_v=[0, 1, 2, 3, 4, 5, 6, 7, 8, 9, 10, 11, 12, 13, 14, 15, 16, 17, 18, 19, 20, 21, 22, 23, 24, 25]
12 Feb 09:12    INFO  FEARec(
  (item_embedding): Embedding(1350, 64, padding_idx=0)
  (position_embedding): Embedding(50, 64)
  (item_encoder): FEAEncoder(
    (layer): ModuleList(
      (0-1): 2 x FEABlock(
        (hybrid_attention): HybridAttention(
          (dropout): Dropout(p=0.1, inplace=False)
          (query_layer): Linear(in_features=64, out_features=64, bias=True)
          (key_layer): Linear(in_features=64, out_features=64, bias=True)
          (value_layer): Linear(in_features=64, out_features=64, bias=True)
          (attn_dropout): Dropout(p=0.5, inplace=False)
          (dense): Linear(in_features=64, out_features=64, bias=True)
          (LayerNorm): LayerNorm((64,), eps=1e-12, elementwise_affine=True)
          (out_dropout): Dropout(p=0.5, inplace=False)
        )
        (feed_forward): FeedForward(
          (dense_1): Linear(in_features=64, out_features=256, bias=True)
          (dense_2): Linear(in_features=256, out_features=64, bias=True)
          (LayerNorm): LayerNorm((64,), eps=1e-12, elementwise_affine=True)
          (dropout): Dropout(p=0.5, inplace=False)
        )
      )
    )
    (layer_ramp): FEABlock(
      (hybrid_attention): HybridAttention(
        (dropout): Dropout(p=0.1, inplace=False)
        (query_layer): Linear(in_features=64, out_features=64, bias=True)
        (key_layer): Linear(in_features=64, out_features=64, bias=True)
        (value_layer): Linear(in_features=64, out_features=64, bias=True)
        (attn_dropout): Dropout(p=0.5, inplace=False)
        (dense): Linear(in_features=64, out_features=64, bias=True)
        (LayerNorm): LayerNorm((64,), eps=1e-12, elementwise_affine=True)
        (out_dropout): Dropout(p=0.5, inplace=False)
      )
      (feed_forward): FeedForward(
        (dense_1): Linear(in_features=64, out_features=256, bias=True)
        (dense_2): Linear(in_features=256, out_features=64, bias=True)
        (LayerNorm): LayerNorm((64,), eps=1e-12, elementwise_affine=True)
        (dropout): Dropout(p=0.5, inplace=False)
      )
    )
  )
  (LayerNorm): LayerNorm((64,), eps=1e-12, elementwise_affine=True)
  (dropout): Dropout(p=0.5, inplace=False)
  (loss_fct): CrossEntropyLoss()
  (aug_nce_fct): CrossEntropyLoss()
  (sem_aug_nce_fct): CrossEntropyLoss()
)
Trainable parameters: 189696
12 Feb 09:12    INFO  FLOPs: 12364864.0
/home/572/kd6504/TRACT/RecBole/recbole/trainer/trainer.py:235: FutureWarning: `torch.cuda.amp.GradScaler(args...)` is deprecated. Please use `torch.amp.GradScaler('cuda', args...)` instead.
…
